…
2024-11-05 11:11:15,064   INFO  Database filter by min points Vehicle: 416525 => 409429
2024-11-05 11:11:15,093   INFO  Database filter by min points Pedestrian: 171303 => 166159
2024-11-05 11:11:15,097   INFO  Database filter by min points Cyclist: 15030 => 14687
2024-11-05 11:11:15,125   INFO  Loading Custom dataset.
2024-11-05 11:11:15,538   INFO  Total samples for CUSTOM dataset: 17174
2024-11-05 11:11:17,272   INFO  ----------- Model CenterPoint created, param count: 15468268 -----------
2024-11-05 11:11:17,273   INFO  CenterPoint(
  (vfe): DynamicVoxelVFE(
    (pfn_layers): ModuleList(
      (0): PFNLayerV2(
        (linear): Linear(in_features=11, out_features=96, bias=False)
        (norm): BatchNorm1d(96, eps=0.001, momentum=0.01, affine=True, track_running_stats=True)
        (relu): ReLU()
      )
      (1): PFNLayerV2(
        (linear): Linear(in_features=192, out_features=192, bias=False)
        (norm): BatchNorm1d(192, eps=0.001, momentum=0.01, affine=True, track_running_stats=True)
        (relu): ReLU()
      )
    )
  )
  (backbone_3d): DSVT(
    (input_layer): DSVTInputLayer(
      (posembed_layers): ModuleList(
        (0-2): 3 x ModuleList(
          (0): ModuleList(
            (0-1): 2 x PositionEmbeddingLearned(
              (position_embedding_head): Sequential(
                (0): Linear(in_features=3, out_features=192, bias=True)
                (1): BatchNorm1d(192, eps=1e-05, momentum=0.1, affine=True, track_running_stats=True)
                (2): ReLU(inplace=True)
                (3): Linear(in_features=192, out_features=192, bias=True)
              )
            )
          )
        )
        (3): ModuleList(
          (0): ModuleList(
            (0-1): 2 x PositionEmbeddingLearned(
              (position_embedding_head): Sequential(
                (0): Linear(in_features=2, out_features=192, bias=True)
                (1): BatchNorm1d(192, eps=1e-05, momentum=0.1, affine=True, track_running_stats=True)
                (2): ReLU(inplace=True)
                (3): Linear(in_features=192, out_features=192, bias=True)
              )
            )
          )
        )
      )
    )
    (stage_0): ModuleList(
      (0): DSVTBlock(
        (encoder_list): ModuleList(
          (0-1): 2 x DSVT_EncoderLayer(
            (win_attn): SetAttention(
              (self_attn): MultiheadAttention(
                (out_proj): NonDynamicallyQuantizableLinear(in_features=192, out_features=192, bias=True)
              )
              (linear1): Linear(in_features=192, out_features=384, bias=True)
              (dropout): Dropout(p=0, inplace=False)
              (linear2): Linear(in_features=384, out_features=192, bias=True)
              (norm1): LayerNorm((192,), eps=1e-05, elementwise_affine=True)
              (norm2): LayerNorm((192,), eps=1e-05, elementwise_affine=True)
              (dropout1): Identity()
              (dropout2): Identity()
            )
            (norm): LayerNorm((192,), eps=1e-05, elementwise_affine=True)
          )
        )
      )
    )
    (residual_norm_stage_0): ModuleList(
      (0): LayerNorm((192,), eps=1e-05, elementwise_affine=True)
    )
    (stage_0_reduction): Stage_ReductionAtt_Block(
      (query_func): MaxPool1d(kernel_size=4, stride=4, padding=0, dilation=1, ceil_mode=False)
      (norm): LayerNorm((192,), eps=1e-05, elementwise_affine=True)
      (self_attn): MultiheadAttention(
        (out_proj): NonDynamicallyQuantizableLinear(in_features=192, out_features=192, bias=True)
      )
    )
    (stage_1): ModuleList(
      (0): DSVTBlock(
        (encoder_list): ModuleList(
          (0-1): 2 x DSVT_EncoderLayer(
            (win_attn): SetAttention(
              (self_attn): MultiheadAttention(
                (out_proj): NonDynamicallyQuantizableLinear(in_features=192, out_features=192, bias=True)
              )
              (linear1): Linear(in_features=192, out_features=384, bias=True)
              (dropout): Dropout(p=0, inplace=False)
              (linear2): Linear(in_features=384, out_features=192, bias=True)
              (norm1): LayerNorm((192,), eps=1e-05, elementwise_affine=True)
              (norm2): LayerNorm((192,), eps=1e-05, elementwise_affine=True)
              (dropout1): Identity()
              (dropout2): Identity()
            )
            (norm): LayerNorm((192,), eps=1e-05, elementwise_affine=True)
          )
        )
      )
    )
    (residual_norm_stage_1): ModuleList(
      (0): LayerNorm((192,), eps=1e-05, elementwise_affine=True)
    )
    (stage_1_reduction): Stage_ReductionAtt_Block(
      (query_func): MaxPool1d(kernel_size=4, stride=4, padding=0, dilation=1, ceil_mode=False)
      (norm): LayerNorm((192,), eps=1e-05, elementwise_affine=True)
      (self_attn): MultiheadAttention(
        (out_proj): NonDynamicallyQuantizableLinear(in_features=192, out_features=192, bias=True)
      )
    )
    (stage_2): ModuleList(
      (0): DSVTBlock(
        (encoder_list): ModuleList(
          (0-1): 2 x DSVT_EncoderLayer(
            (win_attn): SetAttention(
              (self_attn): MultiheadAttention(
                (out_proj): NonDynamicallyQuantizableLinear(in_features=192, out_features=192, bias=True)
              )
              (linear1): Linear(in_features=192, out_features=384, bias=True)
              (dropout): Dropout(p=0, inplace=False)
              (linear2): Linear(in_features=384, out_features=192, bias=True)
              (norm1): LayerNorm((192,), eps=1e-05, elementwise_affine=True)
              (norm2): LayerNorm((192,), eps=1e-05, elementwise_affine=True)
              (dropout1): Identity()
              (dropout2): Identity()
            )
            (norm): LayerNorm((192,), eps=1e-05, elementwise_affine=True)
          )
        )
      )
    )
    (residual_norm_stage_2): ModuleList(
      (0): LayerNorm((192,), eps=1e-05, elementwise_affine=True)
    )
    (stage_2_reduction): Stage_ReductionAtt_Block(
      (query_func): MaxPool1d(kernel_size=2, stride=2, padding=0, dilation=1, ceil_mode=False)
      (norm): LayerNorm((192,), eps=1e-05, elementwise_affine=True)
      (self_attn): MultiheadAttention(
        (out_proj): NonDynamicallyQuantizableLinear(in_features=192, out_features=192, bias=True)
      )
    )
    (stage_3): ModuleList(
      (0): DSVTBlock(
        (encoder_list): ModuleList(
          (0-1): 2 x DSVT_EncoderLayer(
            (win_attn): SetAttention(
              (self_attn): MultiheadAttention(
                (out_proj): NonDynamicallyQuantizableLinear(in_features=192, out_features=192, bias=True)
              )
              (linear1): Linear(in_features=192, out_features=384, bias=True)
              (dropout): Dropout(p=0, inplace=False)
              (linear2): Linear(in_features=384, out_features=192, bias=True)
              (norm1): LayerNorm((192,), eps=1e-05, elementwise_affine=True)
              (norm2): LayerNorm((192,), eps=1e-05, elementwise_affine=True)
              (dropout1): Identity()
              (dropout2): Identity()
            )
            (norm): LayerNorm((192,), eps=1e-05, elementwise_affine=True)
          )
        )
      )
    )
    (residual_norm_stage_3): ModuleList(
      (0): LayerNorm((192,), eps=1e-05, elementwise_affine=True)
    )
  )
  (map_to_bev_module): PointPillarScatter3d()
  (pfe): None
  (backbone_2d): BaseBEVResBackbone(
    (blocks): ModuleList(
      (0): Sequential(
        (0): BasicBlock(
          (conv1): Conv2d(192, 128, kernel_size=(3, 3), stride=(1, 1), padding=(1, 1), bias=False)
          (bn1): BatchNorm2d(128, eps=0.001, momentum=0.01, affine=True, track_running_stats=True)
          (relu1): ReLU()
          (conv2): Conv2d(128, 128, kernel_size=(3, 3), stride=(1, 1), padding=(1, 1), bias=False)
          (bn2): BatchNorm2d(128, eps=0.001, momentum=0.01, affine=True, track_running_stats=True)
          (relu2): ReLU()
          (downsample_layer): Sequential(
            (0): Conv2d(192, 128, kernel_size=(1, 1), stride=(1, 1), bias=False)
            (1): BatchNorm2d(128, eps=0.001, momentum=0.01, affine=True, track_running_stats=True)
          )
        )
        (1): BasicBlock(
          (conv1): Conv2d(128, 128, kernel_size=(3, 3), stride=(1, 1), padding=(1, 1), bias=False)
          (bn1): BatchNorm2d(128, eps=0.001, momentum=0.01, affine=True, track_running_stats=True)
          (relu1): ReLU()
          (conv2): Conv2d(128, 128, kernel_size=(3, 3), stride=(1, 1), padding=(1, 1), bias=False)
          (bn2): BatchNorm2d(128, eps=0.001, momentum=0.01, affine=True, track_running_stats=True)
          (relu2): ReLU()
        )
      )
      (1): Sequential(
        (0): BasicBlock(
          (conv1): Conv2d(128, 128, kernel_size=(3, 3), stride=(2, 2), padding=(1, 1), bias=False)
          (bn1): BatchNorm2d(128, eps=0.001, momentum=0.01, affine=True, track_running_stats=True)
          (relu1): ReLU()
          (conv2): Conv2d(128, 128, kernel_size=(3, 3), stride=(1, 1), padding=(1, 1), bias=False)
          (bn2): BatchNorm2d(128, eps=0.001, momentum=0.01, affine=True, track_running_stats=True)
          (relu2): ReLU()
          (downsample_layer): Sequential(
            (0): Conv2d(128, 128, kernel_size=(1, 1), stride=(2, 2), bias=False)
            (1): BatchNorm2d(128, eps=0.001, momentum=0.01, affine=True, track_running_stats=True)
          )
        )
        (1): BasicBlock(
          (conv1): Conv2d(128, 128, kernel_size=(3, 3), stride=(1, 1), padding=(1, 1), bias=False)
          (bn1): BatchNorm2d(128, eps=0.001, momentum=0.01, affine=True, track_running_stats=True)
          (relu1): ReLU()
          (conv2): Conv2d(128, 128, kernel_size=(3, 3), stride=(1, 1), padding=(1, 1), bias=False)
          (bn2): BatchNorm2d(128, eps=0.001, momentum=0.01, affine=True, track_running_stats=True)
          (relu2): ReLU()
        )
        (2): BasicBlock(
          (conv1): Conv2d(128, 128, kernel_size=(3, 3), stride=(1, 1), padding=(1, 1), bias=False)
          (bn1): BatchNorm2d(128, eps=0.001, momentum=0.01, affine=True, track_running_stats=True)
          (relu1): ReLU()
          (conv2): Conv2d(128, 128, kernel_size=(3, 3), stride=(1, 1), padding=(1, 1), bias=False)
          (bn2): BatchNorm2d(128, eps=0.001, momentum=0.01, affine=True, track_running_stats=True)
          (relu2): ReLU()
        )
      )
      (2): Sequential(
        (0): BasicBlock(
          (conv1): Conv2d(128, 256, kernel_size=(3, 3), stride=(2, 2), padding=(1, 1), bias=False)
          (bn1): BatchNorm2d(256, eps=0.001, momentum=0.01, affine=True, track_running_stats=True)
          (relu1): ReLU()
          (conv2): Conv2d(256, 256, kernel_size=(3, 3), stride=(1, 1), padding=(1, 1), bias=False)
          (bn2): BatchNorm2d(256, eps=0.001, momentum=0.01, affine=True, track_running_stats=True)
          (relu2): ReLU()
          (downsample_layer): Sequential(
            (0): Conv2d(128, 256, kernel_size=(1, 1), stride=(2, 2), bias=False)
            (1): BatchNorm2d(256, eps=0.001, momentum=0.01, affine=True, track_running_stats=True)
          )
        )
        (1): BasicBlock(
          (conv1): Conv2d(256, 256, kernel_size=(3, 3), stride=(1, 1), padding=(1, 1), bias=False)
          (bn1): BatchNorm2d(256, eps=0.001, momentum=0.01, affine=True, track_running_stats=True)
          (relu1): ReLU()
          (conv2): Conv2d(256, 256, kernel_size=(3, 3), stride=(1, 1), padding=(1, 1), bias=False)
          (bn2): BatchNorm2d(256, eps=0.001, momentum=0.01, affine=True, track_running_stats=True)
          (relu2): ReLU()
        )
        (2): BasicBlock(
          (conv1): Conv2d(256, 256, kernel_size=(3, 3), stride=(1, 1), padding=(1, 1), bias=False)
          (bn1): BatchNorm2d(256, eps=0.001, momentum=0.01, affine=True, track_running_stats=True)
          (relu1): ReLU()
          (conv2): Conv2d(256, 256, kernel_size=(3, 3), stride=(1, 1), padding=(1, 1), bias=False)
          (bn2): BatchNorm2d(256, eps=0.001, momentum=0.01, affine=True, track_running_stats=True)
          (relu2): ReLU()
        )
        (3): BasicBlock(
          (conv1): Conv2d(256, 256, kernel_size=(3, 3), stride=(1, 1), padding=(1, 1), bias=False)
          (bn1): BatchNorm2d(256, eps=0.001, momentum=0.01, affine=True, track_running_stats=True)
          (relu1): ReLU()
          (conv2): Conv2d(256, 256, kernel_size=(3, 3), stride=(1, 1), padding=(1, 1), bias=False)
          (bn2): BatchNorm2d(256, eps=0.001, momentum=0.01, affine=True, track_running_stats=True)
          (relu2): ReLU()
        )
        (4): BasicBlock(
          (conv1): Conv2d(256, 256, kernel_size=(3, 3), stride=(1, 1), padding=(1, 1), bias=False)
          (bn1): BatchNorm2d(256, eps=0.001, momentum=0.01, affine=True, track_running_stats=True)
          (relu1): ReLU()
          (conv2): Conv2d(256, 256, kernel_size=(3, 3), stride=(1, 1), padding=(1, 1), bias=False)
          (bn2): BatchNorm2d(256, eps=0.001, momentum=0.01, affine=True, track_running_stats=True)
          (relu2): ReLU()
        )
      )
    )
    (deblocks): ModuleList(
      (0): Sequential(
        (0): ConvTranspose2d(128, 128, kernel_size=(1, 1), stride=(1, 1), bias=False)
        (1): BatchNorm2d(128, eps=0.001, momentum=0.01, affine=True, track_running_stats=True)
        (2): ReLU()
      )
      (1): Sequential(
        (0): ConvTranspose2d(128, 128, kernel_size=(2, 2), stride=(2, 2), bias=False)
        (1): BatchNorm2d(128, eps=0.001, momentum=0.01, affine=True, track_running_stats=True)
        (2): ReLU()
      )
      (2): Sequential(
        (0): ConvTranspose2d(256, 128, kernel_size=(4, 4), stride=(4, 4), bias=False)
        (1): BatchNorm2d(128, eps=0.001, momentum=0.01, affine=True, track_running_stats=True)
        (2): ReLU()
      )
    )
  )
  (dense_head): CenterHead(
    (shared_conv): Sequential(
      (0): Conv2d(384, 256, kernel_size=(3, 3), stride=(1, 1), padding=(1, 1), bias=False)
      (1): BatchNorm2d(256, eps=0.001, momentum=0.01, affine=True, track_running_stats=True)
      (2): ReLU()
    )
    (heads_list): ModuleList(
      (0): SeparateHead(
        (center): Sequential(
          (0): Sequential(
            (0): Conv2d(256, 256, kernel_size=(3, 3), stride=(1, 1), padding=(1, 1), bias=False)
            (1): BatchNorm2d(256, eps=0.001, momentum=0.01, affine=True, track_running_stats=True)
            (2): ReLU()
          )
          (1): Conv2d(256, 2, kernel_size=(3, 3), stride=(1, 1), padding=(1, 1))
        )
        (center_z): Sequential(
          (0): Sequential(
            (0): Conv2d(256, 256, kernel_size=(3, 3), stride=(1, 1), padding=(1, 1), bias=False)
            (1): BatchNorm2d(256, eps=0.001, momentum=0.01, affine=True, track_running_stats=True)
            (2): ReLU()
          )
          (1): Conv2d(256, 1, kernel_size=(3, 3), stride=(1, 1), padding=(1, 1))
        )
        (dim): Sequential(
          (0): Sequential(
            (0): Conv2d(256, 256, kernel_size=(3, 3), stride=(1, 1), padding=(1, 1), bias=False)
            (1): BatchNorm2d(256, eps=0.001, momentum=0.01, affine=True, track_running_stats=True)
            (2): ReLU()
          )
          (1): Conv2d(256, 3, kernel_size=(3, 3), stride=(1, 1), padding=(1, 1))
        )
        (rot): Sequential(
          (0): Sequential(
            (0): Conv2d(256, 256, kernel_size=(3, 3), stride=(1, 1), padding=(1, 1), bias=False)
            (1): BatchNorm2d(256, eps=0.001, momentum=0.01, affine=True, track_running_stats=True)
            (2): ReLU()
          )
          (1): Conv2d(256, 2, kernel_size=(3, 3), stride=(1, 1), padding=(1, 1))
        )
        (iou): Sequential(
          (0): Sequential(
            (0): Conv2d(256, 256, kernel_size=(3, 3), stride=(1, 1), padding=(1, 1), bias=False)
            (1): BatchNorm2d(256, eps=0.001, momentum=0.01, affine=True, track_running_stats=True)
            (2): ReLU()
          )
          (1): Conv2d(256, 1, kernel_size=(3, 3), stride=(1, 1), padding=(1, 1))
        )
        (hm): Sequential(
          (0): Sequential(
            (0): Conv2d(256, 256, kernel_size=(3, 3), stride=(1, 1), padding=(1, 1), bias=False)
            (1): BatchNorm2d(256, eps=0.001, momentum=0.01, affine=True, track_running_stats=True)
            (2): ReLU()
          )
          (1): Conv2d(256, 3, kernel_size=(3, 3), stride=(1, 1), padding=(1, 1))
        )
      )
    )
    (hm_loss_func): FocalLossCenterNet()
    (reg_loss_func): RegLossCenterNet()
  )
  (point_head): None
  (roi_head): None
)
2024-11-05 11:11:17,276   INFO  **********************Start training cfgs/my_models/dsvt(default)**********************
2024-11-05 11:11:19,306   INFO  Train:    1/48 (  2%) [   0/8587 (  0%)]  Loss: 67.97 (68.0)  LR: 1.000e-05  Time cost: 00:01/3:48:55 [00:02/183:08:22]  Acc_iter 1           Data time: 0.39(0.39)  Forward time: 1.21(1.21)  Batch time: 1.60(1.60)
…
